…
ocal/lib/python3.6/dist-packages/tensorflow/python/ops/resource_variable_ops.py:435: colocate_with (from tensorflow.python.framework.ops) is deprecated and will be removed in a future version.\nInstructions for updating:\nColocations handled automatically by placer.\n__________________________________________________________________________________________________\nLayer (type)                    Output Shape         Param #     Connected to                     \n==================================================================================================\ninput_1 (InputLayer)            (None, 128, 128, 3)  0                                            \n__________________________________________________________________________________________________\nconv2d (Conv2D)                 (None, 128, 128, 16) 448         input_1[0][0]                    \n__________________________________________________________________________________________________\nconv2d_1 (Conv2D)               (None, 128, 128, 16) 2320        conv2d[0][0]                     \n__________________________________________________________________________________________________\nmax_pooling2d (MaxPooling2D)    (None, 64, 64, 16)   0           conv2d_1[0][0]                   \n__________________________________________________________________________________________________\nconv2d_2 (Conv2D)               (None, 64, 64, 32)   4640        max_pooling2d[0][0]              \n__________________________________________________________________________________________________\nconv2d_3 (Conv2D)               (None, 64, 64, 32)   9248        conv2d_2[0][0]                   \n__________________________________________________________________________________________________\nmax_pooling2d_1 (MaxPooling2D)  (None, 32, 32, 32)   0           conv2d_3[0][0]                   \n__________________________________________________________________________________________________\nconv2d_4 (Conv2D)               (None, 32, 32, 64)   18496       max_pooling2d_1[0][0]            \n__________________________________________________________________________________________________\nconv2d_5 (Conv2D)               (None, 32, 32, 64)   36928       conv2d_4[0][0]                   \n__________________________________________________________________________________________________\nmax_pooling2d_2 (MaxPooling2D)  (None, 16, 16, 64)   0           conv2d_5[0][0]                   \n__________________________________________________________________________________________________\nconv2d_6 (Conv2D)               (None, 16, 16, 128)  73856       max_pooling2d_2[0][0]            \n__________________________________________________________________________________________________\nconv2d_7 (Conv2D)               (None, 16, 16, 128)  147584      conv2d_6[0][0]                   \n__________________________________________________________________________________________________\nmax_pooling2d_3 (MaxPooling2D)  (None, 8, 8, 128)    0           conv2d_7[0][0]                   \n__________________________________________________________________________________________________\nconv2d_8 (Conv2D)               (None, 8, 8, 256)    295168      max_pooling2d_3[0][0]            \n__________________________________________________________________________________________________\nconv2d_9 (Conv2D)               (None, 8, 8, 256)    590080      conv2d_8[0][0]                   \n__________________________________________________________________________________________________\nup_sampling2d (UpSampling2D)    (None, 16, 16, 256)  0           conv2d_9[0][0]                   \n__________________________________________________________________________________________________\nconcatenate (Concatenate)       (None, 16, 16, 384)  0           up_sampling2d[0][0]              \n                                                                 conv2d_7[0][0]                   \n__________________________________________________________________________________________________\nconv2d_10 (Conv2D)              (None, 16, 16, 128)  442496      concatenate[0][0]                \n__________________________________________________________________________________________________\nconv2d_11 (Conv2D)              (None, 16, 16, 128)  147584      conv2d_10[0][0]                  \n__________________________________________________________________________________________________\nup_sampling2d_1 (UpSampling2D)  (None, 32, 32, 128)  0           conv2d_11[0][0]                  \n__________________________________________________________________________________________________\nconcatenate_1 (Concatenate)     (None, 32, 32, 192)  0           up_sampling2d_1[0][0]            \n                                                                 conv2d_5[0][0]                   \n__________________________________________________________________________________________________\nconv2d_12 (Conv2D)              (None, 32, 32, 64)   110656      concatenate_1[0][0]              \n__________________________________________________________________________________________________\nconv2d_13 (Conv2D)              (None, 32, 32, 64)   36928       conv2d_12[0][0]                  \n__________________________________________________________________________________________________\nup_sampling2d_2 (UpSampling2D)  (None, 64, 64, 64)   0           conv2d_13[0][0]                  \n__________________________________________________________________________________________________\nconcatenate_2 (Concatenate)     (None, 64, 64, 96)   0           up_sampling2d_2[0][0]            \n                                                                 conv2d_3[0][0]                   \n__________________________________________________________________________________________________\nconv2d_14 (Conv2D)              (None, 64, 64, 32)   27680       concatenate_2[0][0]              \n__________________________________________________________________________________________________\nconv2d_15 (Conv2D)              (None, 64, 64, 32)   9248        conv2d_14[0][0]                  \n__________________________________________________________________________________________________\nup_sampling2d_3 (UpSampling2D)  (None, 128, 128, 32) 0           conv2d_15[0][0]                  \n__________________________________________________________________________________________________\nconcatenate_3 (Concatenate)     (None, 128, 128, 48) 0           up_sampling2d_3[0][0]            \n                                                                 conv2d_1[0][0]                   \n__________________________________________________________________________________________________\nconv2d_16 (Conv2D)              (None, 128, 128, 16) 6928        concatenate_3[0][0]              \n__________________________________________________________________________________________________\nconv2d_17 (Conv2D)              (None, 128, 128, 16) 2320        conv2d_16[0][0]                  \n__________________________________________________________________________________________________\nconv2d_18 (Conv2D)              (None, 128, 128, 1)  17          conv2d_17[0][0]                  \n==================================================================================================\nTotal params: 1,962,625\nTrainable params: 1,962,625\nNon-trainable params: 0\n__________________________________________________________________________________________________"
  },
  {
    "objectID": "posts/code/unet_segmentation.html#training-the-model",
…
nput(shape = (IMG_HEIGHT, IMG_WIDTH, 3)))\nmodel_vgg16.add(vgg16)\nmodel_vgg16.add(Flatten())\nmodel_vgg16.add(Dense(128,\n                  activation='relu'))\nmodel_vgg16.add(Dropout(0.4))\nmodel_vgg16.add(Dense(1,\n                      activation='sigmoid',\n                      bias_initializer = output_bias))\nmodel_vgg16.summary()\n\nModel: \"sequential_1\"\n_________________________________________________________________\nLayer (type)                 Output Shape              Param #   \n=================================================================\nvgg16 (Functional)           (None, 4, 4, 512)         14714688  \n_________________________________________________________________\nflatten_1 (Flatten)          (None, 8192)              0         \n_________________________________________________________________\ndense_2 (Dense)              (None, 128)               1048704   \n_________________________________________________________________\ndropout_3 (Dropout)          (None, 128)               0         \n_________________________________________________________________\ndense_3 (Dense)              (None, 1)                 129       \n=================================================================\nTotal params: 15,763,521\nTrainable params: 1,048,833\nNon-trainable params: 14,714,688\n_________________________________________________________________\n\n\nListo, el modelo tiene 524,417 de parámetros entrenables.\n\n\nCompilamos el modelo basado en VGG16\n\n# Usamos las mismas métricas de evaluación\nmetrics = [Binary
…
